basic_pitch/saved_models/icassp_2022/nmp.tflite (tflite, 204448 bytes, 14 tensors)

model_1/re_lu_3/Relu;model_1/re_lu_3/Relu;model_1/batch_normalization_3/FusedBatchNormV3;model_1/batch_normalization_3/FusedBatchNormV3;model_1/conv2d_4/BiasAdd/ReadVariableOp;model_1/conv2d_4/BiasAdd/ReadVariableOp;model_1/conv2d_4/BiasAdd;model_1/conv2d_4/BiasAdd;model_1/conv2d_2/Conv2D;model_1/conv2d_2/Conv2D;model_1/conv2d_4/Conv2D;model_1/conv2d_4/Conv2D f4 [32]
0	0xbf0df09d	-0.5544527
1	0x3ee8334c	0.45351636
2	0x3fb22d35	1.3920046
3	0x402b96c0	2.681076
4	0x3ff31144	1.8989644
5	0xbf752745	-0.95763046
6	0xbfde1453	-1.7349952
7	0x3e3a5e8a	0.18200126
8	0x3f96148c	1.172502
9	0x3f95972a	1.1686757
10	0xbef35ae0	-0.4753027
11	0xbfe5f609	-1.7965709
12	0x3fa10240	1.2578812
13	0x3f780992	0.96889603
14	0x3fdd112f	1.7270869
15	0xbf8934db	-1.0719255
16	0x3f91e873	1.1399063
17	0xbfc58cf1	-1.5433637
18	0xc01bb171	-2.4327052
19	0xbea35f7e	-0.31908792
20	0xbfc830ec	-1.563993
21	0x3fa6f745	1.3044211
22	0xbf862952	-1.048136
23	0x3f7e8696	0.9942411
24	0xc00d475d	-2.2074807
25	0x3fd85bf9	1.6903068
26	0xbd13ed8d	-0.036115218
27	0xbecf91ad	-0.4054083
28	0x3f315af1	0.6927939
29	0xc00a20a4	-2.1582422
30	0xbf7611fc	-0.9612119
31	0x3f1430fc	0.57887244

model_1/re_lu_1/Relu;model_1/re_lu_1/Relu;model_1/batch_normalization_2/FusedBatchNormV3;model_1/batch_normalization_2/FusedBatchNormV3;model_1/conv2d_1/BiasAdd/ReadVariableOp;model_1/conv2d_1/BiasAdd/ReadVariableOp;model_1/conv2d_1/BiasAdd;model_1/conv2d_1/BiasAdd;model_1/conv2d_1/Conv2D;model_1/conv2d_1/Conv2D f4 [8]
0	0x3f45e0b0	0.7729597
1	0xbf9dc4a1	-1.2325631
2	0xbfa1e53d	-1.2648083
3	0x3f7b0408	0.98053026
4	0xbefb636f	-0.490993
5	0x3f99b394	1.2007928
6	0x3f2fa0e7	0.6860489
7	0xbfcdaf4b	-1.606912

model_1/conv2d_2/BiasAdd/ReadVariableOp;model_1/conv2d_2/BiasAdd/ReadVariableOp f4 [32]
0	0x3e9eaf11	0.3099294
1	0x3f0d86c7	0.5528378
2	0x3ea03d29	0.31296661
3	0x3ee2d39c	0.4430207
4	0x3f13314a	0.57497084
5	0xbdc13cf7	-0.09435456
6	0xbd2e925d	-0.04262005
7	0xbe610c0c	-0.21977252
8	0x3e9678fa	0.29389173
9	0x3eefd0c3	0.4683896
10	0x3f2ada1c	0.6673906
11	0xbd668457	-0.056278553
12	0x3e1d0ec6	0.15337667
13	0x3e12b51b	0.14326899
14	0x3ea54bc9	0.32284382
15	0xbead2e1f	-0.3382425
16	0x3f0233e4	0.5086043
17	0x3f1c8245	0.61136276
18	0xbeac3d57	-0.3364055
19	0x3eaa0084	0.33203518
20	0x3f0a1ea5	0.5395301
21	0x3f120029	0.57031494
22	0x3e2bc876	0.16775689
23	0xbdaa74d0	-0.083230615
24	0xbd873daa	-0.06603558
25	0x3f2d5b03	0.67717
26	0x3f85ff63	1.0468563
27	0xbe794a83	-0.2434483
28	0x3d551af3	0.052027654
29	0x3d3efe81	0.046629433
30	0x3e1f6bc4	0.15568453
31	0x3e2f999d	0.17148443

model_1/cq_t2010v2_1/conv1d_23;model_1/cq_t2010v2_1/conv1d_23 f4 [1, 1, 256, 1]
0	0xb8e903db	-0.00011111024
1	0xb8ec899f	-0.00011278991
2	0x38f079d5	0.00011466785
3	0x38f5cade	0.00011720297
4	0xb8fb94c1	-0.0001199632
5	0xb9016915	-0.00012341545
6	0x39054abc	0.00012711709
7	0x3909f076	0.00013154917
8	0xb90edefd	-0.00013625245
9	0xb9149cde	-0.00014172817
10	0x391aa8bc	0.00014749443
11	0x39219035	0.00015407878
12	0xb928ca36	-0.00016097058
13	0xb930ed09	-0.0001687297
14	0x3939664d	0.00017681085
15	0x3942d694	0.00018581218
16	0xb94ca09d	-0.00019514789
17	0xb95770d0	-0.00020546024
18	0x39629d82	0.00021611716
19	0x396ee081	0.00022781083
20	0xb97b8232	-0.00023985727
21	0xb984a5a6	-0.0002530042
22	0x398bba66	0.00026651024
23	0x39936be5	0.00028118413
24	0xb99b4e39	-0.00029622184
25	0xb9a3d6d7	-0.0003124985
26	0x39ac90b7	0.00032914217
27	0x39b5faeb	0.0003470996
28	0xb9bf96a4	-0.00036542595
29	0xb9c9ed3f	-0.0003851447
30	0x39d4757e	0.0004052333
31	0x39dfc3b4	0.00042679685
32	0xb9eb4394	-0.00044873042
33	0xb9f79507	-0.00047222545
34	0x3a020c0f	0.00049609033
35	0x3a08bc78	0.00052160723
36	0xba0f85b0	-0.0005474938
37	0xba16c424	-0.0005751273
38	0x3a1e1b69	0.0006031306
39	0x3a25ee96	0.00063298026
40	0xba2ddaa4	-0.0006632006
41	0xba364998	-0.00069537153
42	0x3a3ed194	0.00072791544
43	0x3a47e3c9	0.000762519
44	0xba510f4f	-0.00079749984
45	0xba5accbf	-0.00083465496
46	0x3a64a3f5	0.0008721941
47	0x3a6f1529	0.00091202796
48	0xba79a0d3	-0.0009522561
49	0xba82677f	-0.0009949057
50	0x3a880c4a	0.0010379639
51	0x3a8e06d3	0.0010835774
52	0xba940fbb	-0.0011296192
53	0xba9a7321	-0.0011783579
54	0x3aa0e5c3	0.0012275506
55	0x3aa7b7ef	0.0012795905
56	0xbaae9a78	-0.0013321182
57	0xbab5e1ea	-0.0013876532
58	0x3abd3b27	0.0014437184
59	0x3ac4ff0d	0.0015029624
60	0xbaccd68b	-0.0015627904
61	0xbad51ede	-0.001625981
62	0x3add7d06	0.0016898222
63	0x3ae652ae	0.0017572248
64	0xbaef40eb	-0.00182536
65	0xbaf8ade7	-0.0018972725
66	0x3b011b6b	0.001970018
67	0x3b062337	0.0020467767
68	0xbb0b3b09	-0.0021244904
69	0xbb109a8a	-0.0022064769
70	0x3b160c8c	0.0022895662
71	0x3b1bcb0e	0.0023772153
72	0xbb219f13	-0.0024661466
73	0xbb27c4f7	-0.0025599578
74	0x3b2e03ff	0.0026552675
75	0x3b349aee	0.0027558166
76	0xbb3b4f63	-0.0028581254
77	0xbb426296	-0.0029660813
78	0x3b49989a	0.0030761124
79	0x3b51352a	0.0031922557
80	0xbb58faf4	-0.0033108564
81	0xbb613049	-0.0034361056
82	0x3b69969c	0.0035642749
83	0x3b7276f4	0.003699717
84	0xbb7b91bc	-0.0038386425
85	0xbb82996c	-0.0039855745
86	0x3b878cf7	0.0041366774
87	0x3b8ccafb	0.004296658
88	0xbb923314	-0.0044616554
89	0xbb97ee6a	-0.0046365755
90	0x3b9ddc9e	0.0048175594
91	0x3ba428b3	0.0050097345
92	0xbbaab298	-0.0052092783
93	0xbbb1a776	-0.005421574
94	0x3bb8e7ed	0.005642882
95	0x3bc0a3ac	0.005878886
96	0xbbc8bc8e	-0.006125993
97	0xbbd1655b	-0.0063902563
98	0x3bda81e7	0.0066683176
99	0x3be448e5	0.0069666975
100	0xbbeea139	-0.007282403
101	0xbbf9c6bb	-0.0076225675
102	0x3c02d27b	0.007984753
103	0x3c093f66	0.008376932
104	0xbc102371	-0.008797512
105	0xbc17a50f	-0.009255662
106	0x3c1fc30e	0.0097510945
107	0x3c28ab51	0.010294751
108	0xbc326556	-0.010888418
109	0xbc3d2a94	-0.011545796
110	0x3c4910c0	0.01227206
111	0x3c566452	0.013085442
112	0xbc655368	-0.013996936
113	0xbc764b97	-0.01503267
114	0x3c84d3c3	0.016214257
115	0x3c900986	0.017582666
116	0xbc9d2065	-0.019180486
117	0xbcacaeb1	-0.021079393
118	0x3cbf6e83	0.023368126
119	0x3cd68db8	0.026190624
120	0xbcf3be35	-0.029753784
121	0xbd0ced70	-0.034406126
122	0x3d26d971	0.040734712
123	0x3d4c3e81	0.049864296
124	0xbd8374e6	-0.06418781
125	0xbdb835fc	-0.08994672
126	0x3e1999c6	0.15000066
127	0x3ee678fa	0.45014173
128	0x3ee678fa	0.45014173
129	0x3e1999c6	0.15000066
130	0xbdb835fc	-0.08994672
131	0xbd8374e6	-0.06418781
132	0x3d4c3e81	0.049864296
133	0x3d26d971	0.040734712
134	0xbd0ced70	-0.034406126
135	0xbcf3be35	-0.029753784
136	0x3cd68db8	0.026190624
137	0x3cbf6e83	0.023368126
138	0xbcacaeb1	-0.021079393
139	0xbc9d2065	-0.019180486
140	0x3c900986	0.017582666
141	0x3c84d3c3	0.016214257
142	0xbc764b97	-0.01503267
143	0xbc655368	-0.013996936
144	0x3c566452	0.013085442
145	0x3c4910c0	0.01227206
146	0xbc3d2a94	-0.011545796
147	0xbc326556	-0.010888418
148	0x3c28ab51	0.010294751
149	0x3c1fc30e	0.0097510945
150	0xbc17a50f	-0.009255662
151	0xbc102371	-0.008797512
152	0x3c093f66	0.008376932
153	0x3c02d27b	0.007984753
154	0xbbf9c6bb	-0.0076225675
155	0xbbeea139	-0.007282403
156	0x3be448e5	0.0069666975
157	0x3bda81e7	0.0066683176
158	0xbbd1655b	-0.0063902563
159	0xbbc8bc8e	-0.006125993
160	0x3bc0a3ac	0.005878886
161	0x3bb8e7ed	0.005642882
162	0xbbb1a776	-0.005421574
163	0xbbaab298	-0.0052092783
164	0x3ba428b3	0.0050097345
165	0x3b9ddc9e	0.0048175594
166	0xbb97ee6a	-0.0046365755
167	0xbb923314	-0.0044616554
168	0x3b8ccafb	0.004296658
169	0x3b878cf7	0.0041366774
170	0xbb82996c	-0.0039855745
171	0xbb7b91bc	-0.0038386425
172	0x3b7276f4	0.003699717
173	0x3b69969c	0.0035642749
174	0xbb613049	-0.0034361056
175	0xbb58faf4	-0.0033108564
176	0x3b51352a	0.0031922557
177	0x3b49989a	0.0030761124
178	0xbb426296	-0.0029660813
179	0xbb3b4f63	-0.0028581254
180	0x3b349aee	0.0027558166
181	0x3b2e03ff	0.0026552675
182	0xbb27c4f7	-0.0025599578
183	0xbb219f13	-0.0024661466
184	0x3b1bcb0e	0.0023772153
185	0x3b160c8c	0.0022895662
186	0xbb109a8a	-0.0022064769
187	0xbb0b3b09	-0.0021244904
188	0x3b062337	0.0020467767
189	0x3b011b6b	0.001970018
190	0xbaf8ade7	-0.0018972725
191	0xbaef40eb	-0.00182536
192	0x3ae652ae	0.0017572248
193	0x3add7d06	0.0016898222
194	0xbad51ede	-0.001625981
195	0xbaccd68b	-0.0015627904
196	0x3ac4ff0d	0.0015029624
197	0x3abd3b27	0.0014437184
198	0xbab5e1ea	-0.0013876532
199	0xbaae9a78	-0.0013321182
200	0x3aa7b7ef	0.0012795905
201	0x3aa0e5c3	0.0012275506
202	0xba9a7321	-0.0011783579
203	0xba940fbb	-0.0011296192
204	0x3a8e06d3	0.0010835774
205	0x3a880c4a	0.0010379639
206	0xba82677f	-0.0009949057
207	0xba79a0d3	-0.0009522561
208	0x3a6f1529	0.00091202796
209	0x3a64a3f5	0.0008721941
210	0xba5accbf	-0.00083465496
211	0xba510f4f	-0.00079749984
212	0x3a47e3c9	0.000762519
213	0x3a3ed194	0.00072791544
214	0xba364998	-0.00069537153
215	0xba2ddaa4	-0.0006632006
216	0x3a25ee96	0.00063298026
217	0x3a1e1b69	0.0006031306
218	0xba16c424	-0.0005751273
219	0xba0f85b0	-0.0005474938
220	0x3a08bc78	0.00052160723
221	0x3a020c0f	0.00049609033
222	0xb9f79507	-0.00047222545
223	0xb9eb4394	-0.00044873042
224	0x39dfc3b4	0.00042679685
225	0x39d4757e	0.0004052333
226	0xb9c9ed3f	-0.0003851447
227	0xb9bf96a4	-0.00036542595
228	0x39b5faeb	0.0003470996
229	0x39ac90b7	0.00032914217
230	0xb9a3d6d7	-0.0003124985
231	0xb99b4e39	-0.00029622184
232	0x39936be5	0.00028118413
233	0x398bba66	0.00026651024
234	0xb984a5a6	-0.0002530042
235	0xb97b8232	-0.00023985727
236	0x396ee081	0.00022781083
237	0x39629d82	0.00021611716
238	0xb95770d0	-0.00020546024
239	0xb94ca09d	-0.00019514789
240	0x3942d694	0.00018581218
241	0x3939664d	0.00017681085
242	0xb930ed09	-0.0001687297
243	0xb928ca36	-0.00016097058
244	0x39219035	0.00015407878
245	0x391aa8bc	0.00014749443
246	0xb9149cde	-0.00014172817
247	0xb90edefd	-0.00013625245
248	0x3909f076	0.00013154917
249	0x39054abc	0.00012711709
250	0xb9016915	-0.00012341545
251	0xb8fb94c1	-0.0001199632
252	0x38f5cade	0.00011720297
253	0x38f079d5	0.00011466785
254	0xb8ec899f	-0.00011278991
255	0xb8e903db	-0.00011111024

model_1/cq_t2010v2_1/conv1d_25;model_1/cq_t2010v2_1/conv1d_25 f4 [36]
0	0x00000000	0.0
1	0x00000000	0.0
2	0x00000000	0.0
3	0x00000000	0.0
4	0x00000000	0.0
5	0x00000000	0.0
6	0x00000000	0.0
7	0x00000000	0.0
8	0x00000000	0.0
9	0x00000000	0.0
10	0x00000000	0.0
11	0x00000000	0.0
12	0x00000000	0.0
13	0x00000000	0.0
14	0x00000000	0.0
15	0x00000000	0.0
16	0x00000000	0.0
17	0x00000000	0.0
18	0x00000000	0.0
19	0x00000000	0.0
20	0x00000000	0.0
21	0x00000000	0.0
22	0x00000000	0.0
23	0x00000000	0.0
24	0x00000000	0.0
25	0x00000000	0.0
26	0x00000000	0.0
27	0x00000000	0.0
28	0x00000000	0.0
29	0x00000000	0.0
30	0x00000000	0.0
31	0x00000000	0.0
32	0x00000000	0.0
33	0x00000000	0.0
34	0x00000000	0.0
35	0x00000000	0.0

model_1/cq_t2010v2_1/conv1d_3;model_1/cq_t2010v2_1/conv1d_3 f4 [36, 1, 256, 1]
0	0x00000000	0.0
1	0x00000000	0.0
2	0x00000000	0.0
3	0x00000000	0.0
4	0x00000000	0.0
5	0x00000000	0.0
6	0x00000000	0.0
7	0x00000000	0.0
8	0x00000000	0.0
9	0x00000000	0.0
10	0x00000000	0.0
11	0x00000000	0.0
12	0x00000000	0.0
13	0x00000000	0.0
14	0x00000000	0.0
15	0x00000000	0.0
16	0x00000000	0.0
17	0x00000000	0.0
18	0x00000000	0.0
19	0x00000000	0.0
20	0x00000000	0.0
21	0xb5db648a	-1.6346032e-06
22	0xb69f564d	-4.748616e-06
23	0x375e5833	1.3252767e-05
24	0x37ba0701	2.217619e-05
25	0xb8068242	-3.20694e-05
26	0xb86b4486	-5.6092184e-05
27	0x385bbf15	5.2391628e-05
28	0x38e42e52	0.00010880515
29	0xb88e0c59	-6.7733876e-05
30	0xb93db475	-0.0001809167
31	0x38955926	7.121479e-05
32	0x398e3013	0.0002712017
33	0xb86acfde	-5.598354e-05
34	0xb9c56fe4	-0.00037658133
35	0x37835580	1.5656231e-05
36	0x3a01066e	0.00049219176
37	0x3867c47c	5.5257682e-05
38	0xba205033	-0.0006115466
39	0xb928c70b	-0.00016095878
40	0x3a3e85ef	0.00072678825
41	0x399f637b	0.00030400962
42	0xba595272	-0.00082901784
43	0xb9fe4e99	-0.00048505215
44	0x3a6e3549	0.00090869196
45	0x3a382f09	0.0007026052
46	0xba7aa0be	-0.00095606956
47	0xba79cf99	-0.00095295307
48	0x3a7c19fb	0.00096169085
49	0x3aa13c6c	0.0012301332
50	0xba7059f9	-0.00091686804
51	0xbac804f7	-0.0015260269
52	0x3a556dde	0.00081416767
53	0x3aefef15	0.0018305505
54	0xba29d555	-0.00064786273
55	0xbb0bb821	-0.0021319466
56	0x39d93b18	0.00041433494
57	0x3b1e6940	0.002417162
58	0xb8ebbcb7	-0.00011240824
59	0xbb2f21c6	-0.0026723011
60	0xb9866dc6	-0.0002564026
61	0x3b3cf317	0.0028831416
62	0x3a34498c	0.00068774144
63	0xbb46f269	-0.003035689
64	0xba99ed42	-0.0011743682
65	0x3b4c4270	0.003116753
66	0x3adfa38e	0.0017062293
67	0xbb4c1cfe	-0.003114521
68	0xbb14cf12	-0.0022706431
69	0x3b45dc39	0.0030191077
70	0x3b3af2a5	0.0028525975
71	0xbb390310	-0.0028230585
72	0xbb61203d	-0.003435149
73	0x3b254480	0.002521783
74	0x3b8311bd	0.0039999173
75	0xbb0a8972	-0.0021139053
76	0xbb945cb6	-0.0045276536
77	0x3ad1e9a9	0.0016015071
78	0x3ba3cd8e	0.0049988693
79	0xba81cba5	-0.000990261
80	0xbbb0c454	-0.005394498
81	0x3997bf53	0.00028943512
82	0x3bbaaa52	0.0056965733
83	0x39fff8ca	0.00048822752
84	0xbbc0f7a1	-0.0058888947
85	0xbaade698	-0.0013267575
86	0x3bc33872	0.0059576565
87	0x3b10a8da	0.00220733
88	0xbbc111d7	-0.0058920193
89	0xbb4bbc22	-0.0031087478
90	0x3bba45dd	0.005684598
91	0x3b8355bb	0.0040080226
92	0xbbaeb6d1	-0.005331852
93	0xbb9ff11b	-0.004881037
94	0x3b9e6984	0.004834356
95	0x3bbae276	0.005703266
96	0xbb898683	-0.0041969432
97	0xbbd35efa	-0.006450531
98	0x3b60b42f	0.0034287085
99	0x3be8a535	0.0070997723
100	0xbb26a661	-0.002542876
101	0xbbfa035a	-0.007629794
102	0x3acc0438	0.0015565222
103	0x3c036e9c	0.008021977
104	0xba007edd	-0.00049017166
105	0xbc0758d1	-0.008260922
106	0xba25dddb	-0.00063273095
107	0x3c088f86	0.008335
108	0x3aea276b	0.0017864531
109	0xbc06f3a5	-0.0082368
110	0xbb40eaf5	-0.002943692
111	0x3c02791b	0.007963444
112	0x3b8592f6	0.004076357
113	0xbbf64f33	-0.0075167655
114	0xbba8f6e5	-0.0051563852
115	0x3be23571	0.0069033434
116	0x3bc9bd1c	0.006156577
117	0xbbc902f7	-0.0061343866
118	0xbbe70f73	-0.0070514022
119	0x3bab3a6b	0.00522547
120	0x3c001625	0.00781778
121	0xbb897fb2	-0.0041961307
122	0xbc0a3630	-0.008435771
123	0x3b492704	0.003069342
124	0x3c11a3fe	0.008889196
125	0xbaf537fb	-0.00187087
126	0xbc162d87	-0.009166128
127	0x3a24c4d6	0.00062854344
128	0x3c17b426	0.009259259
129	0x3a24c4d6	0.00062854344
130	0xbc162d87	-0.009166128
131	0xbaf537fb	-0.00187087
132	0x3c11a3fe	0.008889196
133	0x3b492704	0.003069342
134	0xbc0a3630	-0.008435771
135	0xbb897fb2	-0.0041961307
136	0x3c001625	0.00781778
137	0x3bab3a6b	0.00522547
138	0xbbe70f73	-0.0070514022
139	0xbbc902f7	-0.0061343866
140	0x3bc9bd1c	0.006156577
141	0x3be23571	0.0069033434
142	0xbba8f6e5	-0.0051563852
143	0xbbf64f33	-0.0075167655
144	0x3b8592f6	0.004076357
145	0x3c02791b	0.007963444
146	0xbb40eaf5	-0.002943692
147	0xbc06f3a5	-0.0082368
148	0x3aea276b	0.0017864531
149	0x3c088f86	0.008335
150	0xba25dddb	-0.00063273095
151	0xbc0758d1	-0.008260922
152	0xba007edd	-0.00049017166
153	0x3c036e9c	0.008021977
154	0x3acc0438	0.0015565222
155	0xbbfa035a	-0.007629794
156	0xbb26a661	-0.002542876
157	0x3be8a535	0.0070997723
158	0x3b60b42f	0.0034287085
159	0xbbd35efa	-0.006450531
160	0xbb898683	-0.0041969432
161	0x3bbae276	0.005703266
162	0x3b9e6984	0.004834356
163	0xbb9ff11b	-0.004881037
164	0xbbaeb6d1	-0.005331852
165	0x3b8355bb	0.0040080226
166	0x3bba45dd	0.005684598
167	0xbb4bbc22	-0.0031087478
168	0xbbc111d7	-0.0058920193
169	0x3b10a8da	0.00220733
170	0x3bc33872	0.0059576565
171	0xbaade698	-0.0013267575
172	0xbbc0f7a1	-0.0058888947
173	0x39fff8ca	0.00048822752
174	0x3bbaaa52	0.0056965733
175	0x3997bf53	0.00028943512
176	0xbbb0c454	-0.005394498
177	0xba81cba5	-0.000990261
178	0x3ba3cd8e	0.0049988693
179	0x3ad1e9a9	0.0016015071
180	0xbb945cb6	-0.0045276536
181	0xbb0a8972	-0.0021139053
182	0x3b8311bd	0.0039999173
183	0x3b254480	0.002521783
184	0xbb61203d	-0.003435149
185	0xbb390310	-0.0028230585
186	0x3b3af2a5	0.0028525975
187	0x3b45dc39	0.0030191077
188	0xbb14cf12	-0.0022706431
189	0xbb4c1cfe	-0.003114521
190	0x3adfa38e	0.0017062293
191	0x3b4c4270	0.003116753
192	0xba99ed42	-0.0011743682
193	0xbb46f269	-0.003035689
194	0x3a34498c	0.00068774144
195	0x3b3cf317	0.0028831416
196	0xb9866dc6	-0.0002564026
197	0xbb2f21c6	-0.0026723011
198	0xb8ebbcb7	-0.00011240824
199	0x3b1e6940	0.002417162
200	0x39d93b18	0.00041433494
201	0xbb0bb821	-0.0021319466
202	0xba29d555	-0.00064786273
203	0x3aefef15	0.0018305505
204	0x3a556dde	0.00081416767
205	0xbac804f7	-0.0015260269
206	0xba7059f9	-0.00091686804
207	0x3aa13c6c	0.0012301332
208	0x3a7c19fb	0.00096169085
209	0xba79cf99	-0.00095295307
210	0xba7aa0be	-0.00095606956
211	0x3a382f09	0.0007026052
212	0x3a6e3549	0.00090869196
213	0xb9fe4e99	-0.00048505215
214	0xba595272	-0.00082901784
215	0x399f637b	0.00030400962
216	0x3a3e85ef	0.00072678825
217	0xb928c70b	-0.00016095878
218	0xba205033	-0.0006115466
219	0x3867c47c	5.5257682e-05
220	0x3a01066e	0.00049219176
221	0x37835580	1.5656231e-05
222	0xb9c56fe4	-0.00037658133
223	0xb86acfde	-5.598354e-05
224	0x398e3013	0.0002712017
225	0x38955926	7.121479e-05
226	0xb93db475	-0.0001809167
227	0xb88e0c59	-6.7733876e-05
228	0x38e42e52	0.00010880515
229	0x385bbf15	5.2391628e-05
230	0xb86b4486	-5.6092184e-05
231	0xb8068242	-3.20694e-05
232	0x37ba0701	2.217619e-05
233	0x375e5833	1.3252767e-05
234	0xb69f564d	-4.748616e-06
235	0xb5db648a	-1.6346032e-06
236	0x00000000	0.0
237	0x00000000	0.0
238	0x00000000	0.0
239	0x00000000	0.0
240	0x00000000	0.0
241	0x00000000	0.0
242	0x00000000	0.0
243	0x00000000	0.0
244	0x00000000	0.0
245	0x00000000	0.0
246	0x00000000	0.0
247	0x00000000	0.0
248	0x00000000	0.0
249	0x00000000	0.0
250	0x00000000	0.0
251	0x00000000	0.0
252	0x00000000	0.0
253	0x00000000	0.0
254	0x00000000	0.0
255	0x00000000	0.0

model_1/cq_t2010v2_1/conv1d_25;model_1/cq_t2010v2_1/conv1d_251 f4 [36, 1, 256, 1]
0	0x00000000	0.0
1	0x00000000	0.0
2	0x00000000	0.0
3	0x00000000	0.0
4	0x00000000	0.0
5	0x00000000	0.0
6	0x00000000	0.0
7	0x00000000	0.0
8	0x00000000	0.0
9	0x00000000	0.0
10	0x00000000	0.0
11	0x00000000	0.0
12	0x00000000	0.0
13	0x00000000	0.0
14	0x00000000	0.0
15	0x00000000	0.0
16	0x00000000	0.0
17	0x00000000	0.0
18	0x00000000	0.0
19	0x00000000	0.0
20	0x00000000	0.0
21	0x3590cf12	1.0789101e-06
22	0xb6d10297	-6.228987e-06
23	0xb742bcaa	-1.1607228e-05
24	0x37b956ca	2.2094133e-05
25	0x381abb41	3.6890855e-05
26	0xb831faac	-4.2433545e-05
27	0xb8a7d031	-8.001959e-05
28	0x388028b2	6.111096e-05
29	0x391563c0	0.00014246907
30	0xb895b7c1	-7.1391005e-05
31	0xb96ad095	-0.00022393682
32	0x388b271d	6.635322e-05
33	0x39a8f61e	0.0003222683
34	0xb824f1ca	-3.932583e-05
35	0xb9e34461	-0.0004334776
36	0xb7838920	-1.568027e-05
37	0x3a10aaf1	0.00055186363
38	0x38d92d12	0.00010355761
39	0xba2fb18d	-0.00067021773
40	0xb96eca26	-0.00022772755
41	0x3a4c80b2	0.00078011595
42	0x39cc6127	0.00038982296
43	0xba64a9fd	-0.000872284
44	0xba1a84ec	-0.00058944407
45	0x3a75a271	0.0009370214
46	0x3a5801b9	0.0008240003
47	0xba7ce1ad	-0.00096466654
48	0xba8eb0f5	-0.0010886478
49	0x3a7802a6	0.0009460844
50	0x3ab465e7	0.001376328
51	0xba64e479	-0.0008731555
52	0xbadbed4d	-0.0016779095
53	0x3a41c9ef	0.0007392456
54	0x3b01eba8	0.00198243
55	0xba0d7659	-0.00053963583
56	0xbb1540f6	-0.0022774315
57	0x398e8cbe	0.00027189212
58	0x3b27137a	0.0025493787
59	0x3885e287	6.384128e-05
60	0xbb367635	-0.0027841453
61	0xb9f39b16	-0.0004646412
62	0x3b427b43	0.002967552
63	0x3a726818	0.00092470786
64	0xbb4a3d60	-0.0030859336
65	0xbabc234e	-0.0014353783
66	0x3b4ce9a0	0.003126718
67	0x3b021b0d	0.001985255
68	0xbb49c8e3	-0.0030789904
69	0xbb27cd2c	-0.002560447
70	0x3b4048b5	0.0029340212
71	0x3b4e1b01	0.00314492
72	0xbb300339	-0.002685739
73	0xbb73db1d	-0.003720946
74	0x3b18c5bf	0.0023311225
75	0x3b8be84a	0.0042696344
76	0xbaf52b9d	-0.0018705014
77	0xbb9c5a8c	-0.004771536
78	0x3aab689e	0.0013077443
79	0x3baaa1e7	0.0052072885
80	0xba2a7aca	-0.00065032823
81	0xbbb62254	-0.0055582915
82	0xb8be3fc6	-9.071785e-05
83	0x3bbe4bd4	0.0058073793
84	0x3a6c3102	0.0009009988
85	0xbbc29feb	-0.005939474
86	0xbae7169d	-0.0017630641
87	0x3bc2b6aa	0.0059421854
88	0x3b2e1e4d	0.0026568354
89	0xbbbe432a	-0.0058063464
90	0xbb695146	-0.0035601421
91	0x3bb51740	0.0055264533
92	0x3b91cbce	0.0044493442
93	0xbba72642	-0.0051009962
94	0xbbadabdb	-0.005300028
95	0x3b9486ca	0.0045326697
96	0x3bc77bb5	0.006087745
97	0xbb7ae6ab	-0.0038284461
98	0xbbde746e	-0.006788782
99	0x3b449371	0.0029995108
100	0x3bf1dba0	0.0073809177
101	0xbb0712cb	-0.0020610567
102	0xbc0084cb	-0.00784416
103	0x3a874240	0.0010319427
104	0x3c05b780	0.008161426
105	0x3889efce	6.577336e-05
106	0xbc084cfc	-0.008319136
107	0xba9e423a	-0.001207418
108	0x3c081d1f	0.008307724
109	0x3b1b1543	0.0023663796
110	0xbc051232	-0.008122014
111	0xbb665993	-0.0035148605
112	0x3bfe53ed	0.0077614696
113	0x3b978aa2	0.0046246806
114	0xbbecec2d	-0.007230303
115	0xbbb9bb82	-0.0056681046
116	0x3bd637f4	0.006537432
117	0x3bd8e16b	0.006618669
118	0xbbbaa7f0	-0.0056962892
119	0xbbf42fb1	-0.0074519743
120	0x3b9acfe6	0.0047244905
121	0x3c05789a	0.008146429
122	0xbb6ec583	-0.0036433644
123	0xbc0e46f0	-0.008683905
124	0x3b225b50	0.0024773665
125	0x3c1447ae	0.009050293
126	0xbaa448cb	-0.0012533901
127	0xbc175255	-0.009235938
128	0x00000000	0.0
129	0x3c175255	0.009235938
130	0x3aa448cb	0.0012533901
131	0xbc1447ae	-0.009050293
132	0xbb225b50	-0.0024773665
133	0x3c0e46f0	0.008683905
134	0x3b6ec583	0.0036433644
135	0xbc05789a	-0.008146429
136	0xbb9acfe6	-0.0047244905
137	0x3bf42fb1	0.0074519743
138	0x3bbaa7f0	0.0056962892
139	0xbbd8e16b	-0.006618669
140	0xbbd637f4	-0.006537432
141	0x3bb9bb82	0.0056681046
142	0x3becec2d	0.007230303
143	0xbb978aa2	-0.0046246806
144	0xbbfe53ed	-0.0077614696
145	0x3b665993	0.0035148605
146	0x3c051232	0.008122014
147	0xbb1b1543	-0.0023663796
148	0xbc081d1f	-0.008307724
149	0x3a9e423a	0.001207418
150	0x3c084cfc	0.008319136
151	0xb889efce	-6.577336e-05
152	0xbc05b780	-0.008161426
153	0xba874240	-0.0010319427
154	0x3c0084cb	0.00784416
155	0x3b0712cb	0.0020610567
156	0xbbf1dba0	-0.0073809177
157	0xbb449371	-0.0029995108
158	0x3bde746e	0.006788782
159	0x3b7ae6ab	0.0038284461
160	0xbbc77bb5	-0.006087745
161	0xbb9486ca	-0.0045326697
162	0x3badabdb	0.005300028
163	0x3ba72642	0.0051009962
164	0xbb91cbce	-0.0044493442
165	0xbbb51740	-0.0055264533
166	0x3b695146	0.0035601421
167	0x3bbe432a	0.0058063464
168	0xbb2e1e4d	-0.0026568354
169	0xbbc2b6aa	-0.0059421854
170	0x3ae7169d	0.0017630641
171	0x3bc29feb	0.005939474
172	0xba6c3102	-0.0009009988
173	0xbbbe4bd4	-0.0058073793
174	0x38be3fc6	9.071785e-05
175	0x3bb62254	0.0055582915
176	0x3a2a7aca	0.00065032823
177	0xbbaaa1e7	-0.0052072885
178	0xbaab689e	-0.0013077443
179	0x3b9c5a8c	0.004771536
180	0x3af52b9d	0.0018705014
181	0xbb8be84a	-0.0042696344
182	0xbb18c5bf	-0.0023311225
183	0x3b73db1d	0.003720946
184	0x3b300339	0.002685739
185	0xbb4e1b01	-0.00314492
186	0xbb4048b5	-0.0029340212
187	0x3b27cd2c	0.002560447
188	0x3b49c8e3	0.0030789904
189	0xbb021b0d	-0.001985255
190	0xbb4ce9a0	-0.003126718
191	0x3abc234e	0.0014353783
192	0x3b4a3d60	0.0030859336
193	0xba726818	-0.00092470786
194	0xbb427b43	-0.002967552
195	0x39f39b16	0.0004646412
196	0x3b367635	0.0027841453
197	0xb885e287	-6.384128e-05
198	0xbb27137a	-0.0025493787
199	0xb98e8cbe	-0.00027189212
200	0x3b1540f6	0.0022774315
201	0x3a0d7659	0.00053963583
202	0xbb01eba8	-0.00198243
203	0xba41c9ef	-0.0007392456
204	0x3adbed4d	0.0016779095
205	0x3a64e479	0.0008731555
206	0xbab465e7	-0.001376328
207	0xba7802a6	-0.0009460844
208	0x3a8eb0f5	0.0010886478
209	0x3a7ce1ad	0.00096466654
210	0xba5801b9	-0.0008240003
211	0xba75a271	-0.0009370214
212	0x3a1a84ec	0.00058944407
213	0x3a64a9fd	0.000872284
214	0xb9cc6127	-0.00038982296
215	0xba4c80b2	-0.00078011595
216	0x396eca26	0.00022772755
217	0x3a2fb18d	0.00067021773
218	0xb8d92d12	-0.00010355761
219	0xba10aaf1	-0.00055186363
220	0x37838920	1.568027e-05
221	0x39e34461	0.0004334776
222	0x3824f1ca	3.932583e-05
223	0xb9a8f61e	-0.0003222683
224	0xb88b271d	-6.635322e-05
225	0x396ad095	0.00022393682
226	0x3895b7c1	7.1391005e-05
227	0xb91563c0	-0.00014246907
228	0xb88028b2	-6.111096e-05
229	0x38a7d031	8.001959e-05
230	0x3831faac	4.2433545e-05
231	0xb81abb41	-3.6890855e-05
232	0xb7b956ca	-2.2094133e-05
233	0x3742bcaa	1.1607228e-05
234	0x36d10297	6.228987e-06
235	0xb590cf12	-1.0789101e-06
236	0x00000000	0.0
237	0x00000000	0.0
238	0x00000000	0.0
239	0x00000000	0.0
240	0x00000000	0.0
241	0x00000000	0.0
242	0x00000000	0.0
243	0x00000000	0.0
244	0x00000000	0.0
245	0x00000000	0.0
246	0x00000000	0.0
247	0x00000000	0.0
248	0x00000000	0.0
249	0x00000000	0.0
250	0x00000000	0.0
251	0x00000000	0.0
252	0x00000000	0.0
253	0x00000000	0.0
254	0x00000000	0.0
255	0x00000000	0.0

model_1/conv2d_4/Conv2D;model_1/conv2d_4/Conv2D f4 [32, 5, 5, 8]
0	0xbe60b755	-0.21944936
1	0xbcb8574f	-0.02250257
2	0xbc602cce	-0.013682557
3	0xbda87a94	-0.08226505
4	0x3dc8c354	0.09802881
5	0x3d2ef762	0.04271639
6	0xbe1e7d07	-0.15477382
7	0x3e57c06b	0.21069495
8	0xbe3e8438	-0.18605125
9	0xbe10f362	-0.14155343
10	0xbdb6307d	-0.08895967
11	0xbe9500fe	-0.2910232
12	0xbe1f0c5d	-0.1553206
13	0xbe490476	-0.19630608
14	0xbdae0376	-0.08496754
15	0xbd0e549a	-0.03474865
16	0x3df66b8b	0.12032231
17	0xbd7b1719	-0.061301325
18	0xbe1e9410	-0.15486169
19	0xbe75f91c	-0.24020809
20	0xbe9798bd	-0.29608718
21	0xbd9b6282	-0.07587148
22	0xbdc4ac08	-0.09603125
23	0xbe250ece	-0.16118929
24	0xbde08a41	-0.1096387
25	0x3d8c74ac	0.06858191
26	0x3e7b0610	0.24514031
27	0x3e05f258	0.13080728
28	0x3e062e5d	0.13103624
29	0xbe487dd4	-0.1957925
30	0xbe390874	-0.18069631
31	0xbda5363f	-0.08066987
32	0xbe1ef213	-0.15522031
33	0x3e6c8f81	0.23101617
34	0xbdecd57f	-0.11564159
35	0xbdbbc08b	-0.09167584
36	0x3df86f3d	0.12130592
37	0x3e769927	0.2408186
38	0x3d29f55e	0.041493766
39	0xbdea0db5	-0.11428396
40	0x3d662475	0.056187112
41	0x3cbc140f	0.022958783
42	0xbd6ac9a4	-0.057321206
43	0xbded712d	-0.11593852
44	0xbe1cbe34	-0.15306932
45	0xbd8e6fd5	-0.06954924
46	0x3da71f53	0.081602715
47	0xbe289e62	-0.16466668
48	0x3de2101e	0.1103823
49	0xbeb28c73	-0.3487278
50	0xbe9d80f3	-0.30762443
51	0xbd22115e	-0.039567344
52	0xbe8d9f4e	-0.27660602
53	0x3ca480c5	0.020080933
54	0x3b08ef8f	0.0020894741
55	0x3d03219f	0.032014485
56	0x3ac32444	0.0014888127
57	0xbd131798	-0.035911173
58	0xbe209285	-0.15680893
59	0x3d03bdd9	0.032163475
60	0x3db73866	0.08946304
61	0x3d887bc4	0.066642314
62	0x3d9ac515	0.07557122
63	0xbc7d7a7c	-0.015471097
64	0x3e817c21	0.25290015
65	0x3de2a9d8	0.110675514
66	0xbc2009a8	-0.009767927
67	0xbd4c45bd	-0.049871195
68	0x3e1749fc	0.14774317
69	0x3e51263a	0.20424739
70	0xbce7ea73	-0.028310036
71	0x3db32562	0.087473646
72	0x3ddc5644	0.10758641
73	0xbe018010	-0.12646508
74	0x3e2bd683	0.16781048
75	0xbd15706b	-0.036484163
76	0xbe72c737	-0.23708807
77	0x3dc2c340	0.09509897
78	0x3de13839	0.10997052
79	0xbe35f2fa	-0.1776847
80	0x3e0f4428	0.13990843
81	0x3e311e8f	0.17296813
82	0x3e7f5bcb	0.2493736
83	0xbe14fd92	-0.14549854
84	0xbd130d13	-0.03590114
85	0xbd95dfd5	-0.07318083
86	0x3e0d791d	0.13815732
87	0xbdd16b60	-0.10225558
88	0x3b5a1855	0.0033278663
89	0x3e1c5f05	0.15270622
90	0xbe0cc38d	-0.13746472
91	0x3d373608	0.044729263
92	0x3c03981f	0.008031874
93	0x3e510452	0.20411804
94	0xbe11ef06	-0.14251336
95	0x3de50484	0.11182502
96	0x3cef2adc	0.029195242
97	0x3e78af6e	0.24285671
98	0x3d32c916	0.0436488
99	0x3cd560b9	0.026047098
100	0x3e40d1b4	0.18829995
101	0xbda2b5c5	-0.07944826
102	0xbda7d964	-0.08195761
103	0x3e4008c9	0.18753351
104	0x3e9d0844	0.3067037
105	0xbe6beb2c	-0.2303893
106	0xbccaad3e	-0.024740811
107	0x3e4ff508	0.20308316
108	0x3e5a9f11	0.21349742
109	0xbd749ef1	-0.05972189
110	0xbb972467	-0.004612494
111	0x3e0a9fd2	0.13537529
112	0x3e1352c3	0.1438704
113	0xbec52f97	-0.3851287
114	0x3d2463f2	0.040134378
115	0x3d8e432d	0.069464065
116	0xbdca27cc	-0.09870872
117	0xbd536a84	-0.051615253
118	0x3ce7230a	0.02821495
119	0x3dda99f1	0.10673893
120	0x3e0503a9	0.12989677
121	0x3eae792b	0.3407682
122	0x3e23ea55	0.1600736
123	0x3e0ecfe8	0.13946497
124	0x3d878dc7	0.06618839
125	0x3e3611fa	0.17780295
126	0xbe04328d	-0.12909909
127	0xbc6b7316	-0.0143707
128	0x39079343	0.00012929463
129	0x3d6da19d	0.058015455
130	0x3e2a8f41	0.1665621
131	0x3e572a51	0.21012236
132	0x3e5f0559	0.21779384
133	0x3e0746cb	0.13210599
134	0x3d4892dd	0.048968185
135	0x3e8065ed	0.25077763
136	0xbe12725a	-0.14301434
137	0x3e3d8f0e	0.18511602
138	0x3df6c4f1	0.12049282
139	0xbc1d678b	-0.009607206
140	0x3dd074ab	0.10178503
141	0xbd1e5347	-0.03865364
142	0x3dad509a	0.08462639
143	0xbe087180	-0.13324547
144	0xbe0a7cb1	-0.13524128
145	0xbe6d7bab	-0.23191707
146	0xbdab3e38	-0.08361477
147	0xbdcab739	-0.09898228
148	0x3d1cacff	0.03825092
149	0x3e2adbcc	0.16685408
150	0x3dcd8ce3	0.10036638
151	0xbe1b186c	-0.15146035
152	0x3c3840da	0.011245931
153	0xbeb9506c	-0.3619417
154	0xbc806ce4	-0.015676923
155	0x3c8355d2	0.016032133
156	0xbc119658	-0.008885942
157	0xbdd258fd	-0.102708794
158	0xbde2e12f	-0.110781066
159	0xbd852503	-0.065012
160	0xbe6ea89e	-0.2330651
161	0x3ed710b0	0.4200492
162	0x3e753117	0.23944508
163	0x3e88c16b	0.26710066
164	0x3c853408	0.016260162
165	0x3dcdf537	0.10056537
166	0x3db452c1	0.088048466
167	0x3eb2fe34	0.34959567
168	0xbe488917	-0.19583546
169	0x3e9c9317	0.3058097
170	0x3ec46f25	0.38366047
171	0x3e4e4873	0.20144825
172	0x3de612d3	0.11234059
173	0xbd9bcb58	-0.07607144
174	0x3e8cf931	0.27533868
175	0x3e23ac8e	0.15983793
176	0xbdf4a2c7	-0.1194511
177	0x3db24fd3	0.087066315
178	0x3e80fa21	0.25190833
179	0x3cce8f34	0.025214769
180	0xbdcb38df	-0.09922957
181	0x3de5c585	0.112193145
182	0x3d857338	0.06516117
183	0xbd4d7842	-0.050163515
184	0x3e1490da	0.14508381
185	0x3e4d70a7	0.20062505
186	0x3e709764	0.23495251
187	0xbc6dfcb0	-0.014525577
188	0xbda2d752	-0.07951225
189	0xbe07db12	-0.13267162
190	0x3cb33c76	0.021879416
191	0x3d385d27	0.045010712
192	0xbe2af911	-0.16696574
193	0xbe6330e4	-0.22186619
194	0xbdc86729	-0.09785301
195	0x3ddd358a	0.108012274
196	0xbd9efb6a	-0.07762797
197	0xbe0843d5	-0.13307126
198	0x3a83d0f5	0.0010056781
199	0x3cc26ece	0.023734476
200	0x3d718b07	0.058970477
201	0xbec28f02	-0.3799973
202	0x3ebeb34e	0.37246174
203	0x3ef26712	0.4734426
204	0x3e8e63b5	0.27810445
205	0x3ea3b257	0.31972
206	0x3c26659c	0.0101560615
207	0x3ec14cff	0.37754056
208	0x3df06f54	0.11739984
209	0xbe46650b	-0.19374482
210	0x3df54658	0.11976308
211	0xbc065e12	-0.008201139
212	0x3d9f6940	0.07783747
213	0xbcee10bf	-0.02906072
214	0x3e6100e5	0.21972997
215	0x3e798e47	0.24370681
216	0x3c560fa3	0.0130652515
217	0xbd508ece	-0.05091744
218	0x3efd7657	0.4950435
219	0x3e8c19c8	0.2736342
220	0x3e4e325f	0.20136403
221	0x3f133c22	0.5751363
222	0x3ee753c6	0.45181102
223	0x3e2606bc	0.16213506
224	0x3c64cf8b	0.013965498
225	0xbe893780	-0.26800156
226	0x3e060077	0.13086115
227	0x3e8a88b9	0.27057436
228	0x3d52b2cd	0.05144005
229	0x3db91636	0.090374395
230	0x3f015636	0.5052217
231	0x3de1ca5f	0.11024927
232	0x3e14bdec	0.14525574
233	0x3e1b0649	0.15139116
234	0x3da6d4c4	0.081460506
235	0xbe6a1b80	-0.22862053
236	0x3d40529c	0.046953782
237	0x3e173718	0.1476711
238	0x3dac680f	0.08418285
239	0x3e90c772	0.28277165
240	0x3c718b07	0.014742619
241	0xbee55394	-0.44790328
242	0x3e091f71	0.133909
243	0xbe927706	-0.28606433
244	0x3dc375ea	0.09543975
245	0xbe613bc9	-0.21995462
246	0x3d2d0d48	0.042248994
247	0xbe1877d6	-0.14889464
248	0x3e705520	0.23469973
249	0xbd0e01a1	-0.034669522
250	0x3de4d9fd	0.111743905
251	0x3e00acf7	0.12565981
252	0xbd9a940a	-0.075477675
253	0xbe2f1e08	-0.171013
254	0xbcb97ee4	-0.022643514
255	0xbe824f25	-0.25451007

model_1/conv2d_1/Conv2D;model_1/conv2d_1/Conv2D f4 [8, 3, 39, 8]
0	0x3cb62726	0.022235464
1	0xbd5654ce	-0.05232697
2	0x3c63fb8b	0.013914953
3	0x3b96272d	0.004582307
4	0xbccce613	-0.025012052
5	0x3b6adf40	0.0035838634
6	0xbc868532	-0.016420934
7	0xbd178f6d	-0.037002016
8	0x3c7ef21d	0.015560654
9	0xbc906ede	-0.01763099
10	0x3d0a7980	0.033807278
11	0x3cf48118	0.029846713
12	0xba8d73dd	-0.0010791976
13	0xbab0a951	-0.0013478195
14	0xba8acd01	-0.001058966
15	0xbd156256	-0.036470734
16	0xbc89d0f1	-0.016823264
17	0xbc420a86	-0.011843329
18	0x3c3536d9	0.01106044
19	0x3ce35f2d	0.027755344
20	0xbc8185f0	-0.015810937
21	0xb9320907	-0.00016978766
22	0x3c143d4b	0.0090478165
23	0xbc59436a	-0.013260702
24	0x3bbd1830	0.0057707056
25	0xbc64e4e6	-0.013970589
26	0xba45e2fe	-0.0007548778
27	0x3d077915	0.033074457
28	0xbd0961ab	-0.03354041
29	0xbcbaf46b	-0.022821626
30	0x3b512543	0.003191308
31	0x3ce15f1e	0.027511176
32	0x3c393415	0.011303921
33	0xbb68791b	-0.0035472575
34	0x3b8e4ba9	0.0043425155
35	0x3cdcb1f2	0.02694032
36	0xbd318913	-0.043343615
37	0xbd215420	-0.03938687
38	0xbc7809ed	-0.015139085
39	0x3c065fc1	0.00820154
40	0x3c014388	0.007889636
41	0xbc88a23a	-0.016678918
42	0x3c24d281	0.010059954
43	0x3c27e1b3	0.010246682
44	0x3d0d990d	0.03456979
45	0xbbdc8833	-0.0067301034
46	0xbc87d3d0	-0.016580492
47	0x3b59d800	0.0033240318
48	0x3c54f271	0.012997256
49	0xbc021c74	-0.007941354
50	0x3d134497	0.035954084
51	0x3c1b23ca	0.009468982
52	0x3b6b7e6b	0.0035933505
53	0xbbf11dda	-0.007358295
54	0x3c5e76bd	0.013578114
55	0x3c960fc6	0.018318068
56	0xbcd21980	-0.025646925
57	0xbc8f56fb	-0.01749753
58	0x3d383eb1	0.044981662
59	0xbbaf8a42	-0.005357058
60	0xbb5796f5	-0.0032896374
61	0x38c999a2	9.613043e-05
62	0x3bc8e709	0.006131057
63	0xbcce091b	-0.025150826
64	0xbbd6ada6	-0.006551462
65	0xbc8b5bfd	-0.017011637
66	0xbc8e78f7	-0.017391665
67	0x3985c5e6	0.00025515183
68	0x3c82f76e	0.015987124
69	0x3ce45716	0.027873557
70	0xbce3ab49	-0.027791636
71	0xbc202aac	-0.009775799
72	0xbc9c2cc3	-0.019064313
73	0xbd21d6e5	-0.03951158
74	0xbcc5c51c	-0.02414184
75	0x3cf7e237	0.030259235
76	0x3d0159d1	0.031579796
77	0x3cafdeeb	0.0214686
78	0xbcbd55b1	-0.02311215
79	0x3b1ab8a0	0.002360858
80	0xbc965dde	-0.018355306
81	0xbc4e88dc	-0.012605872
82	0xbc0a33d0	-0.008435205
83	0x3a6975c1	0.00089057913
84	0x3b7a3aaf	0.003818195
85	0x3cf33244	0.029687054
86	0x3a39071f	0.0007058251
87	0x3bfcac05	0.007710936
88	0xbbe65001	-0.00702858
89	0xbc609aca	-0.01370878
90	0x38ac7cce	8.224846e-05
91	0x3c03966d	0.00803147
92	0x3ae42500	0.0017406046
93	0x3ce1a77f	0.027545689
94	0x3d1d1143	0.03834654
95	0x3b456be7	0.003012413
96	0x3b3a2483	0.002840311
97	0xbbedad0f	-0.007253296
98	0xbcda2b83	-0.026632076
99	0x3af69365	0.0018812238
100	0x3bba28bb	0.005681125
101	0x3c696113	0.014244336
102	0x3ccc0f57	0.024909658
103	0x3d2cf7eb	0.04222862
104	0xbba791f9	-0.005113837
105	0xbc5d0ea3	-0.013492259
106	0x3c049349	0.008091756
107	0x3ac3bc4e	0.0014933439
108	0x3c1f0c18	0.009707473
109	0x3c166433	0.009179163
110	0x3c47536f	0.012165888
111	0x3c9a5ce2	0.018843118
112	0x3c35cd1e	0.011096267
113	0xbd9351eb	-0.07193359
114	0xbcaf580c	-0.021404289
115	0xba5ed351	-0.00085001165
116	0x3ce0bc99	0.02743368
117	0x3c1be5ae	0.009515209
118	0x3c8dae34	0.01729498
119	0xbca8b254	-0.020592846
120	0xbaeb1961	-0.0017936641
121	0x3d37408f	0.044739302
122	0xbd2ecf03	-0.04267789
123	0xbbefd544	-0.0073191244
124	0xbcce6915	-0.025196591
125	0x3cd376a5	0.02581341
126	0xbb9157d6	-0.0044355197
127	0x3d068ce8	0.032849222
128	0x3cf6f9e4	0.030148454
129	0x3dca668b	0.0988284
130	0xbc08b5af	-0.008344098
131	0x3ca47999	0.020077514
132	0xbcfc2d43	-0.030783301
133	0x3cfb2d54	0.030661263
134	0xbcac8169	-0.021057801
135	0x3d5e60b5	0.054291446
136	0x3ce3e45e	0.027818855
137	0x3ba34714	0.0049828384
138	0xbd1dc356	-0.038516365
139	0x3ba8561b	0.0051372177
140	0xbc66f30c	-0.014096033
141	0xbcea68f6	-0.028614502
142	0xbbb3a7b6	-0.005482639
143	0xbba15a9f	-0.004924133
144	0x3cf1be2f	0.029509632
145	0xbdd30d68	-0.103052914
146	0xbc8fb0f7	-0.017540438
147	0xbc04938f	-0.008091821
148	0x3c9bd65a	0.01902311
149	0xbb1b6865	-0.0023713347
150	0x3c9934e5	0.01870198
151	0xbd04e839	-0.032448027
152	0x3c8de568	0.017321303
153	0xbdbae2b2	-0.0912527
154	0xbd04ded1	-0.032439057
155	0xbd068980	-0.032845974
156	0xbcf82e23	-0.030295437
157	0x3cd93bdc	0.026517801
158	0x3beebe18	0.0072858445
159	0x3b561442	0.0032665883
160	0xbc13edc6	-0.009028858
161	0xbbbdb97e	-0.0057899347
162	0x3c5a4a64	0.0133234
163	0x3c79d7dd	0.01524922
164	0x3d33823a	0.043825366
165	0x3d1805cd	0.037114907
166	0x3d3b2860	0.0456928
167	0x3ce02523	0.027361458
168	0x3bc4d7e3	0.006007181
169	0xbd2eb1de	-0.042650096
170	0xbcf1bd11	-0.0295091
171	0xbbf76179	-0.0075494614
172	0x3c4c678e	0.012475861
173	0x3c9fc162	0.019501392
174	0x3b49f5d4	0.003081669
175	0x3cdb5e74	0.026778437
176	0xbb67f36f	-0.00353929
177	0x3d2933c7	0.041309144
178	0xbc1a8059	-0.0094300145
179	0x3a902bbf	0.0010999365
180	0x3be70f0a	0.0070513533
181	0xbc3a1b44	-0.01135904
182	0xbc848ad9	-0.016179489
183	0x3c31b155	0.010845502
184	0xbc5f14a0	-0.013615757
185	0xbc1b5ce2	-0.009482594
186	0xbc0c635f	-0.008568614
187	0x3c87e37c	0.016587965
188	0x3b8e0496	0.004334043
189	0x3cc69d60	0.024244964
190	0x3c8ff2ce	0.017571833
191	0xbc37d3e1	-0.011219949
192	0xbc86281b	-0.016376546
193	0xbd095eef	-0.0335378
194	0x3c5a74e8	0.013333537
195	0x3cb53281	0.022118809
196	0x3c546047	0.012962407
197	0xbce758a1	-0.028240504
198	0x3d6c082b	0.057624977
199	0xbcd96bed	-0.02654072
200	0x3bc14ba5	0.00589891
201	0x39b0cc9c	0.00033721782
202	0xbb891019	-0.004182827
203	0xbb7c7a40	-0.0038525015
204	0xbaa978ca	-0.0012929675
205	0xbd025bc9	-0.031825814
206	0xbbc3703f	-0.0059643085
207	0x3bac84de	0.0052648624
208	0x3c5753e9	0.013142564
209	0xb9709fb8	-0.00022947683
210	0xbcca73ac	-0.02471336
211	0x3bbe1744	0.0058011133
212	0xbc87c74f	-0.01657453
213	0xbc29fe9d	-0.010375646
214	0xbd34dc6b	-0.04415552
215	0x3bb54eec	0.00553309
216	0xbb321a7d	-0.0027176433
217	0xbcf07734	-0.029353715
218	0x3beee18c	0.007290071
219	0x3c39d3a2	0.011341961
220	0x3c5bd02f	0.013416334
221	0xbc3ffe40	-0.011718333
222	0xbb9b7154	-0.0047437344
223	0x3d2466c8	0.040137082
224	0x3b82d3d8	0.003992539
225	0xbc362d16	-0.011119148
226	0xbc15be26	-0.009139573
227	0xbb83d0f0	-0.00402271
228	0x3c70b872	0.014692413
229	0x3c1e75c6	0.009671634
230	0x3c1ed951	0.009695367
231	0xbc7faaa6	-0.015604651
232	0x39d28aba	0.0004015768
233	0xbbe9943b	-0.007128266
234	0x3b80424e	0.003914154
235	0x3c61dbea	0.013785342
236	0xbcccb39d	-0.02498799
237	0x3ca8bf87	0.02059914
238	0x3c5054e1	0.012715549
239	0xbc5458d8	-0.012960635
240	0x3ce509f6	0.027958851
241	0xbb9eaae9	-0.0048421514
242	0x3cdcf640	0.02697289
243	0xbcfe43df	-0.031038223
244	0xbd126c6d	-0.035747934
245	0x3b894f0b	0.004190331
246	0x3c49756e	0.012296064
247	0x3ad0996d	0.0015914865
248	0x3cd88b6e	0.026433673
249	0x3ce31678	0.027720675
250	0x3d059583	0.03261329
251	0xbcd4662c	-0.025927626
252	0xbae69841	-0.0017592983
253	0xbcf075b6	-0.029353004
254	0xba3808ce	-0.0007020355
255	0x3c9e2446	0.019304406

model_1/contours-reduced/Conv2D;model_1/contours-reduced/Conv2D f4 [1, 5, 5, 8]
0	0x3c88a440	0.016679883
1	0xbe03181f	-0.1280217
2	0x3d925ff5	0.071472086
3	0x3c850e75	0.016242245
4	0x3c597d3b	0.013274486
5	0x3ccdac4a	0.025106568
6	0x3c7f1421	0.015568764
7	0x3c153d2e	0.009108825
8	0xbbf409c8	-0.007447455
9	0x3cc3df98	0.023910329
10	0xbd7432cb	-0.059618752
11	0xbd1a360e	-0.037649207
12	0xbd6b969e	-0.057516687
13	0x3cd66441	0.026170852
14	0xbc74daaa	-0.014944712
15	0xb9d23656	-0.00040094805
16	0x3c059564	0.008153293
17	0xbc9c3692	-0.01906899
18	0x3c219ed9	0.009864532
19	0xbb53d69f	-0.003232397
20	0x3d8769c7	0.06611972
21	0xbde51327	-0.11185294
22	0xbddb0700	-0.106946945
23	0xbd9f4b05	-0.07777981
24	0x3c49b61e	0.0123114865
25	0x3cb30ed6	0.02185766
26	0xbc933c92	-0.017973218
27	0x3c8d33dc	0.017236643
28	0xbc3e14f9	-0.01160168
29	0x3d267c6f	0.040646013
30	0xbd7c2559	-0.061559055
31	0x3d5b136e	0.053485326
32	0xbca5c81f	-0.020237027
33	0xb97e9580	-0.0002427902
34	0xbc7d9230	-0.015476748
35	0x3c25f9f8	0.010130398
36	0x3c3316ea	0.010930756
37	0x3ce938d9	0.02846949
38	0x3d391edc	0.045195445
39	0xbd443883	-0.047905456
40	0x3d50ff30	0.051024616
41	0xbe4d7e63	-0.20067744
42	0xbd55a9bf	-0.052163836
43	0x3d2c54bf	0.042073008
44	0x3dade85b	0.08491584
45	0x3cbc5a8a	0.022992391
46	0xbcc99abf	-0.024609922
47	0xbc356665	-0.011071776
48	0x3b64c7eb	0.00349092
49	0x3d0dfb50	0.0346635
50	0x3ca2feb7	0.019896848
51	0xbd41ec2c	-0.04734437
52	0xbda3b1a4	-0.07992867
53	0xbc81e744	-0.015857346
54	0xbd2bd4c2	-0.04195095
55	0x3cf16b2a	0.029470045
56	0x3d80fc93	0.06298175
57	0xbdaba079	-0.08380217
58	0x3c9aa2ed	0.018876517
59	0xbc4847d7	-0.012224159
60	0x3caa2a81	0.02077222
61	0xbdf34381	-0.1187811
62	0xbdb7af8c	-0.0896903
63	0x3c363a8f	0.01112236
64	0xbd2b39b8	-0.04180309
65	0xbbc92333	-0.0061382293
66	0x3d5ca327	0.05386653
67	0x3ca33f6a	0.0199277
68	0xbcdef86b	-0.027218064
69	0x3d214ebe	0.039381735
70	0xbd825be3	-0.06365182
71	0x3dd0cfcf	0.10195886
72	0xbce44db4	-0.027869083
73	0x3bc69ff0	0.0060615465
74	0x3d52e65c	0.05148922
75	0x3c33b81e	0.01096919
76	0x3cb87ad2	0.022519503
77	0x3c90cd46	0.017676007
78	0xbcf56b47	-0.02995838
79	0xbcfb48f7	-0.03067444
80	0xbd30432d	-0.043032814
81	0xbe5f36b6	-0.21798214
82	0xbd483f34	-0.0488884
83	0xbbcae81c	-0.0061922204
84	0x3ce87238	0.028374776
85	0xbd47069a	-0.04859028
86	0xbdfd3ec4	-0.12365487
87	0x3c3018ff	0.010748147
88	0xbd8a3eeb	-0.06750282
89	0xbd372822	-0.044716008
90	0x3d134770	0.0359568
91	0xbd73cfc8	-0.059524328
92	0xbd8d8b65	-0.06911353
93	0xbc72d00b	-0.014820109
94	0xbdcdf505	-0.100564994
95	0xbd16da6c	-0.036829397
96	0xbc93f667	-0.01806183
97	0x3cc4aae3	0.024007266
98	0x3d8c5dc0	0.06853819
99	0xbd62b64f	-0.055349644
100	0x3d2f84aa	0.042851128
101	0xbe3cf31d	-0.18452115
102	0xbe6187c9	-0.22024454
103	0xbd26c841	-0.04071832
104	0xbd8b89cb	-0.06813391
105	0x3cad238e	0.021135118
106	0x3c00fc48	0.007872649
107	0xbb0ec982	-0.0021787588
108	0xba520d3b	-0.0008012836
109	0xbd4d1502	-0.050068863
110	0xbe21726d	-0.15766306
111	0x3e3919b3	0.1807621
112	0xbe0f0eb8	-0.13970459
113	0xbc786e71	-0.01516305
114	0xbb2d51d4	-0.0026446478
115	0xbca45fb5	-0.020065168
116	0x3b81cd60	0.00396125
117	0x3a2da333	0.0006623745
118	0xbdcfd36d	-0.10147748
119	0x3ddd3b52	0.1080233
120	0x3d58fa5d	0.05297314
121	0xbe6d57a6	-0.23177966
122	0xbd9d5524	-0.07682255
123	0x3d672002	0.05642701
124	0x3d19dbfe	0.037563317
125	0x3c2215fd	0.009892938
126	0xbd5c0449	-0.053715024
127	0x3c28de0f	0.010306849
128	0xbc596dd4	-0.013270814
129	0xbc1e2950	-0.009653404
130	0xbc7ce60c	-0.015435707
131	0xbd74abb7	-0.059734073
132	0xbd99e8c5	-0.075151004
133	0x3b2dfab0	0.0026547126
134	0xbd18c6b4	-0.037298873
135	0xbcbfa75b	-0.023395231
136	0x3d667907	0.056267764
137	0xbdb2dab8	-0.087331235
138	0xbc719212	-0.0147442985
139	0xbc5276c8	-0.0128457025
140	0x3d3ab262	0.045580275
141	0xbe196ee7	-0.14983712
142	0xbd9f05f7	-0.077648096
143	0xbd97068f	-0.07374298
144	0xbbf2f8eb	-0.0074149272
145	0x3d1f3cbc	0.03887628
146	0x3d5cbcd4	0.053891018
147	0x3ca809e6	0.020512532
148	0xbc79a4fc	-0.015237089
149	0x3d87db35	0.06633607
150	0xbdc8af25	-0.09799031
151	0x3e7ed66a	0.2488648
152	0xbdadb18f	-0.08481132
153	0x3c6b674f	0.014367892
154	0x3c069cb6	0.008216074
155	0x3cc5b72d	0.024135197
156	0x3cae67a0	0.021289647
157	0x3d2db06e	0.042404585
158	0xbd171518	-0.03688535
159	0x3dc1de1f	0.09466194
160	0x3d19a324	0.0375091
161	0xbe5df810	-0.2167666
162	0xbdb57d61	-0.08861805
163	0x3d2bf100	0.041977882
164	0x3d88ddcf	0.06682932
165	0x3c978649	0.01849665
166	0xbd1b2a28	-0.037882
167	0x3d1aaa4a	0.037760057
168	0x3c169ec3	0.009193125
169	0x3c193150	0.009350136
170	0x3d2bbfe1	0.041931037
171	0xbd695fae	-0.056976013
172	0xbdf82766	-0.1211689
173	0xbbcc59bb	-0.0062362826
174	0x3c963297	0.01833467
175	0x3d2a0f5b	0.04151855
176	0x3d6ee343	0.058322202
177	0xbd0a15b8	-0.03371212
178	0x3c1ba0ac	0.009498756
179	0xbd162299	-0.03665409
180	0x3d1405dd	0.036138404
181	0xbe0b01ac	-0.13574857
182	0xbdb53eaf	-0.088498466
183	0xbdf2d054	-0.11856142
184	0xbdbb9f51	-0.091612466
185	0x3d3667cc	0.044532582
186	0x3d0e8b42	0.034800775
187	0x3caf788f	0.021419792
188	0xbd0464b0	-0.032322586
189	0x3cd2c361	0.02572793
190	0xbd87bc0b	-0.06627663
191	0x3e972d20	0.29526615
192	0xbc709de9	-0.014686086
193	0x3d0407fa	0.03223417
194	0xbcbc83e7	-0.023012115
195	0x3d0adca8	0.03390184
196	0xbc0a8810	-0.008455291
197	0x3da3e0d8	0.0800187
198	0x3d856a92	0.06514467
199	0x3bf0d071	0.007349067

model_1/conv2d_2/Conv2D;model_1/conv2d_2/Conv2D f4 [32, 7, 7, 1]
0	0xbdefcc46	-0.11708884
1	0xbdea5bc3	-0.114432834
2	0x3d2089e5	0.039194006
3	0x3e04cd7b	0.1296901
4	0xbe6cca6a	-0.2312409
5	0xbe6390ff	-0.2222328
6	0x3e17be55	0.148187
7	0xbe1dc4e5	-0.1540714
8	0xbe42bfe0	-0.19018507
9	0xbc76c5e6	-0.015061831
10	0x3d92c47f	0.07166385
11	0xbc5e159c	-0.013554957
12	0x3e047ff0	0.1293943
13	0x3da54407	0.08069616
14	0x3d3e935a	0.046527244
15	0xbd4e1cb4	-0.050320342
16	0x3dfbd0f1	0.12295712
17	0x3e0f84b7	0.1401547
18	0xbdb2b8fc	-0.08726689
19	0xbe3fc5a6	-0.1872774
20	0xbdbe6015	-0.0929567
21	0x3e036374	0.12830907
22	0xbd4e43af	-0.050357517
23	0x3e7b051a	0.24513665
24	0x3e547cac	0.20750684
25	0xbdbe5b56	-0.09294765
26	0xbd4f5949	-0.05062226
27	0x3df44f9f	0.11929249
28	0xbcc7c0fa	-0.02438401
29	0x3d91cb31	0.07118834
30	0x3ddf8612	0.10914244
31	0xbdda7735	-0.10667268
32	0x3d998ee6	0.07497959
33	0x3d47d7bc	0.048789725
34	0xbe2798de	-0.16366908
35	0x3e5ead7a	0.21745864
36	0xbe4cf600	-0.20015717
37	0x3da03ae3	0.07823732
38	0xbe77012a	-0.24121538
39	0xbc3e1ed6	-0.011604032
40	0xbde5d2e2	-0.11221863
41	0xbe8dbd43	-0.27683458
42	0x3dda58b1	0.10661448
43	0x3dd19112	0.10232748
44	0x3cf36fa7	0.029716326
45	0xbe3897f7	-0.1802672
46	0x3e212b29	0.1573912
47	0xbe1eb7f1	-0.15499856
48	0xbe9d1c58	-0.30685687
49	0xbe4731cf	-0.19452594
50	0xbe3e22ca	-0.18567958
51	0x3e0bd3b4	0.13654977
52	0xbdeca7cb	-0.115554415
53	0x3db4e6db	0.08833095
54	0xbbb465a9	-0.005505283
55	0xbdc5b4b0	-0.09653604
56	0xbec1c394	-0.37844527
57	0xbe08ed0c	-0.13371676
58	0x3cd93ca0	0.026518166
59	0x3c8181ad	0.015808905
60	0xbc86d2cc	-0.016457938
61	0xbe36034e	-0.17774698
62	0xbd881722	-0.06645037
63	0xbdc37501	-0.09543801
64	0xbde02c22	-0.10945918
65	0x3b6dd3f8	0.0036289673
66	0xbc989785	-0.018626938
67	0x3da1f8f0	0.07908809
68	0xbe0eb191	-0.13934924
69	0x3c6d879d	0.014497665
70	0xbe168a3c	-0.1470117
71	0xbe231608	-0.15926373
72	0x3db02971	0.08601654
73	0x3dc3744d	0.09543667
74	0x3dfd983b	0.12382551
75	0x3e247503	0.16060261
76	0x3d647cd3	0.055783104
77	0xbe0271ab	-0.12738673
78	0xbe09cbdf	-0.13456677
79	0x3e04af26	0.12957439
80	0x3ddc72eb	0.10764106
81	0x3d69b297	0.057055082
82	0x3e19eb97	0.15031277
83	0x3cd6ef2a	0.02623709
84	0xbe817b17	-0.25289223
85	0xbd474dc3	-0.048658144
86	0x3d9a623f	0.0753827
87	0xbe258f70	-0.16167998
88	0xbd00897b	-0.03138111
89	0xbdb49508	-0.08817488
90	0x3d42fd10	0.04760462
91	0xbf0029a3	-0.5006353
92	0xbdd84b9e	-0.10561298
93	0x3deffccd	0.1171814
94	0x3d3861fe	0.045015328
95	0x3df9f4df	0.122049086
96	0xbc588f58	-0.01321777
97	0xbe3d1a9a	-0.18467179
98	0x3de004e2	0.10938431
99	0x3e2ff8da	0.17184773
100	0x3e012e21	0.12615253
101	0xbd6b9c31	-0.057522003
102	0x3d6850e0	0.056717753
103	0xbd50e6f9	-0.051001523
104	0x3e3be0af	0.18347429
105	0xbdd06168	-0.10174829
106	0x3e2dbd99	0.16966857
107	0x3d19e794	0.037574366
108	0xbe86a5e8	-0.2629845
109	0xbd929016	-0.071563885
110	0x3d7549c1	0.05988479
111	0x3d464d12	0.048413344
112	0x3d3eb18e	0.046556048
113	0x3da7ebfe	0.08199309
114	0xbe127b09	-0.14304747
115	0xbd7ff415	-0.062488634
116	0x3d18c0fd	0.037293423
117	0x3e2cb1eb	0.16864745
118	0x3dcb6c98	0.09932822
119	0xbda9efa3	-0.0829766
120	0x3e191567	0.1494957
121	0x3e090164	0.13379437
122	0xbe4e98f4	-0.20175534
123	0xbe2de317	-0.16981159
124	0x3dcaf5ae	0.09910141
125	0x3e8569f2	0.26057392
126	0x3e3abe48	0.18236649
127	0xbe0f427b	-0.13990204
128	0xbe1fc9e6	-0.15604362
129	0xbc0e3f2b	-0.008682053
130	0x3e3b2897	0.18277203
131	0xbd65edbc	-0.056134924
132	0xbd08d634	-0.033407405
133	0x3db9c508	0.09070784
134	0x3e05bdbc	0.13060659
135	0xbdb17506	-0.086648986
136	0xbea80a2f	-0.3282027
137	0xbe3fcb9f	-0.18730019
138	0xbdecdcb4	-0.11565533
139	0x3dfa5159	0.12222547
140	0x3e49a505	0.19691856
141	0x3d5f1465	0.05446281
142	0xbcc2f359	-0.023797678
143	0xbeb7cdeb	-0.3589929
144	0xbe14f89e	-0.14547965
145	0xbbebfcf6	-0.007201786
146	0xbcacd5e5	-0.021098087
147	0x3bebff0d	0.0072020353
148	0x3dbc264b	0.09186991
149	0x3de8c16c	0.11365017
150	0x3d04baef	0.032404836
151	0x3d5616e4	0.052267924
152	0xbdce3d8a	-0.100703314
153	0xbe889282	-0.26674277
154	0x3e08fea3	0.13378386
155	0x3dac5aef	0.08415782
156	0xbcf8e65f	-0.030383287
157	0xbde50ad7	-0.11183708
158	0x3c51d802	0.012807848
159	0xbe119da7	-0.14220296
160	0xbe7c4e19	-0.24639167
161	0x3e31f9c3	0.17380433
162	0x3ccdd105	0.025124082
163	0xbd268d04	-0.040661827
164	0xb9dd693f	-0.0004223082
165	0x3d9b31d3	0.075778626
166	0xbd8a9716	-0.067670986
167	0xbe63b795	-0.22238
168	0x3e722ef2	0.2365072
169	0x3e310f06	0.17290887
170	0x3e320ccf	0.17387699
171	0x3dfa648e	0.122262105
172	0x3e37830b	0.17921083
173	0x3c9f7513	0.019465005
174	0xbdd08f6b	-0.10183605
175	0x3de397e3	0.111129545
176	0x3deaa090	0.11456406
177	0x3b4fae3e	0.003168955
178	0x3d3dc10f	0.046326693
179	0x3c3fa847	0.011697835
180	0xbdd8804b	-0.10571345
181	0xbe37afd8	-0.17938173
182	0x3dfe3c4f	0.12413847
183	0xbc178365	-0.0092476355
184	0x3b9d4da4	0.0048005152
185	0x3d771351	0.060321156
186	0xbcbad6e6	-0.02280755
187	0xbde6d0b6	-0.11270277
188	0xbeb742c0	-0.35793114
189	0x3e1d7513	0.15376692
190	0xbc2a7013	-0.010402697
191	0xbcaf0486	-0.021364462
192	0xbda0dead	-0.07854972
193	0xbc0caf8e	-0.008586777
194	0xbd7f4391	-0.062320296
195	0xbefbd314	-0.49184477
196	0xbdf9fbe1	-0.12206245
197	0xbe81e85e	-0.25372595
198	0x3d32c7a9	0.043647442
199	0x3cc0400f	0.023468046
200	0x3cf4a42d	0.029863441
201	0xbe6c2b1d	-0.23063321
202	0xbda933d3	-0.08261838
203	0xbd233b73	-0.039851617
204	0xbe93bd8d	-0.28855553
205	0xbda51384	-0.08060363
206	0x3cc7daee	0.024396386
207	0x3e03bbaf	0.12864564
208	0xbe0df4f4	-0.13862973
209	0xbc812302	-0.015763763
210	0xbe36aa81	-0.1783848
211	0xbe636209	-0.22205366
212	0x3c4bc589	0.012437233
213	0x3d0e4e22	0.034742482
214	0x3e298b4e	0.16557047
215	0xbde47901	-0.11155892
216	0xbe036be7	-0.1283413
217	0x3d0c4896	0.03424891
218	0xbd21b67c	-0.03948067
219	0x3dfb0b32	0.12257995
220	0x3ddb45d8	0.10706681
221	0x3e67ce77	0.22637354
222	0xbd6df795	-0.05809744
223	0xbd3ff9ad	-0.04686897
224	0xbcb0cbbc	-0.021581523
225	0x3a47588f	0.0007604444
226	0x3dc3763e	0.09544037
227	0x3b0ece27	0.0021790357
228	0x3e3db55b	0.18526213
229	0xbcb70b2b	-0.022344192
230	0xbe4c32f9	-0.1994132
231	0xbe8a062f	-0.26957843
232	0xbe51d023	-0.20489554
233	0xbd86f6bd	-0.0659003
234	0xbd4fb8d8	-0.05071339
235	0xbdc935b4	-0.09824696
236	0xbd5df9a8	-0.05419317
237	0xbe908211	-0.28224233
238	0xbdb106a6	-0.08643846
239	0xbe78e78b	-0.24307077
240	0x3e1c6c12	0.152756
241	0xbdaab088	-0.08334452
242	0x3da42997	0.08015745
243	0x3c273388	0.010205157
244	0xbea477ee	-0.3212275
245	0x3df16614	0.11787048
246	0x3e874680	0.26420975
247	0xbe003e01	-0.12523653
248	0xbd46c522	-0.048527844
249	0xbd81dd29	-0.06341011
250	0xbe2d8010	-0.16943383
251	0x3b764567	0.0037577988
252	0x3e3e6779	0.18594159
253	0x3e93ec38	0.28891158
254	0xbd3f5413	-0.04671104
255	0xbc1c3ab8	-0.009535484
